…
","originalTS ='12152020025615'\r\n","TRAINDSFILE='train_dl_'+originalTS+'.DS'\r\n","VALIDSFILE ='valid_dl_'+originalTS+'.DS'\r\n","MEANSTD ='meanStd_'+originalTS+'.DS'\r\n","\r\n","\r\n","model = torch.load(MODELPATH + MODELFILE)\r\n","print(model)\r\n","\r\n","\r\n","train_dl = torch.load(MODELPATH + TRAINDSFILE)\r\n","valid_dl = torch.load(MODELPATH + VALIDSFILE)\r\n","meanStd =  torch.load(MODELPATH + MEANSTD)\r\n","\r\n","X_valid= valid_dl.dataset.tensors[0]\r\n","y_valid= valid_dl.dataset.tensors[1]"],"execution_count":null,"outputs":[{"output_type":"stream","text":["Sequential(\n","  (0): Linear(in_features=9, out_features=9, bias=True)\n","  (1): LeakyReLU(negative_slope=0.01)\n","  (2): Linear(in_features=9, out_features=18, bias=True)\n","  (3): LeakyReLU(negative_slope=0.01)\n","  (4): Linear(in_features=18, out_features=36, bias=True)\n","  (5): LeakyReLU(negative_slope=0.01)\n","  (6): Linear(in_features=36, out_features=72, bias=True)\n","  (7): LeakyReLU(negative_slope=0.01)\n","  (8): Linear(in_features=72, out_features=72, bias=True)\n","  (9): LeakyReLU(negative_slope=0.01)\n","  (10): Linear(in_features=72, out_features=72, bias=True)\n","  (11): LeakyReLU(negative_slope=0.01)\n","  (12): Linear(in_features=72, out_features=72, bias=True)\n","  (13): LeakyReLU(negative_slope=0.01)\n","  (14): Linear(in_features=72, out_features=72, bias=True)\n","  (15): LeakyReLU(negative_slope=0.01)\n","  (16): Linear(in_features=72, out_features=72, bias=True)\n","  (17): LeakyReLU(negative_slope=0.01)\n","  (18): Linear(in_features=72, out_features=72, bias=True)\n","  (19): LeakyReLU(negative_slope=0.01)\n","  (20): Linear(in_features=72, out_features=36, bias=True)\n","  (21): LeakyReLU(negative_slope=0.01)\n","  (22): Linear(in_features=36, out_features=18, bias=True)\n","  (23): LeakyReLU(negative_slope=0.01)\n","  (24): Linear(in_features=18, out_features=9, bias=True)\n","  (25): LeakyReLU(negative_slope=0.01)\n","  (26): Linear(in_features=9, out_features=1, bias=True)\n","  (27): Sigmoid()\n",")\n"],"name":"stdout"}]},{"cell_type":"markdown","metadata":{"id":"HnS4v8CPDZqR"},"source":["#Metricas"]},{"cell_type":"code","metadata":{"id":"ugbDmGS-DYvq"},"source":["from sklearn.metrics import precision_score\r\n","from sklearn.metrics import f1_score\r\n","import pandas as pd, numpy as np\r\n","\r\n","def metrics2(umbral, pr
…
